src/BBBP.pt (torch, 7772 bytes, 8 tensors)

conv1.bias f4 [20]
000000 e3 ee d9 bd 93 55 d2 3c 7a ca 9b 3e 07 a5 bf 3c
       -0.10641267 0.02567557 0.30427915 0.02339412
000010 1d f3 51 3e 27 4f bc 3d 47 d3 6d be 7d dc d1 3e
       0.20502897 0.091947846 -0.23225127 0.40988532
000020 bd e4 5d bc 24 8f 4b be 90 f5 dc be a3 31 65 3d
       -0.013543305 -0.19878823 -0.431561 0.05595554
000030 bc da d0 3d 5d b0 b7 bc 90 b3 3b 3e 19 1d f4 3d
       0.1019797 -0.022422964 0.18330216 0.119196124
000040 67 c2 6c 3e ff cb ae 3d 28 1c 43 3a d7 58 8d 3e
       0.23121034 0.08535003 0.0007442855 0.27606842

conv1.lin.weight f4 [20, 9]
000000 44 d9 1b 3e 30 43 02 41 71 73 55 bd fe e6 fe 3d
       0.15219599 8.141403 -0.052112047 0.12446402
000010 c4 ed 22 3f 6a 89 aa bf 87 40 23 be 27 c1 12 40
       0.6364405 -1.3323185 -0.15942584 2.293039
000020 88 d5 0e 3e 0d b9 d9 be 50 43 31 3f 80 22 86 be
       0.13948643 -0.42523995 0.69243336 -0.26198196
000030 e6 da 10 3f 01 fa 42 3f e6 67 91 3d b4 e6 95 be
       0.5658401 0.76162726 0.07099895 -0.29277575
000040 7d d9 f1 be 36 42 b6 bd ae ae 9b bf 18 76 4a be
       -0.47236243 -0.088993475 -1.2162683 -0.19771612
000050 ca 00 47 3f 64 bf 20 bf c6 27 24 40 1f 08 3c 40
       0.7773558 -0.6279204 2.5649276 2.9379957
000060 08 9f ea be 5b ad 09 40 2f f0 e7 3f d8 1b 6d bf
       -0.45824456 2.1512058 1.8120173 -0.9262061
000070 bb 96 54 40 37 cd 4f 3f c0 45 be be f5 a5 b0 3f
       3.3216999 0.8117251 -0.3716259 1.3800646
000080 60 4f 54 3e f0 77 88 3e a1 5e e6 be c0 ab 14 40
       0.20733404 0.26654005 -0.4499407 2.3229828
000090 c9 4d a5 bb 54 51 ad 40 4e 18 f1 bd 47 74 d6 bd
       -0.005044673 5.4161777 -0.11772214 -0.10471397
0000a0 41 5d 5a 3f bd 46 37 c0 d9 d6 9e bf 59 56 0e bf
       0.85298544 -2.8636925 -1.2409316 -0.55600506
0000b0 64 5e 8d be 0e 14 2c bf 29 31 07 40 72 1f e5 bc
       -0.27611077 -0.672181 2.1123755 -0.027969096
0000c0 f5 b5 67 3e d1 01 7e 3f 5c 80 6b bf 4b 56 36 be
       0.22628005 0.9922152 -0.91992736 -0.17806356
0000d0 a5 a4 e4 3d 2c 6d bf 3e af ca 56 3f c2 ef 09 c0
       0.11164216 0.3738798 0.8390302 -2.1552587
0000e0 ab 91 13 3f a2 02 89 bf 84 ac 03 40 ec 16 9b 3f
       0.57644147 -1.0703928 2.0574045 1.211637
0000f0 ae 95 1c 3f 59 89 ca be 50 83 00 c0 bb 60 3f bf
       0.61165893 -0.39557913 -2.0080147 -0.74756974
000100 23 f6 34 40 14 aa 2c be 28 41 05 bf 6b 2d 0a 40
       2.827523 -0.16861755 -0.52052546 2.159022
000110 1d 20 64 c0 81 3a 66 bf 62 aa cf bf 99 9d a7 bf
       -3.56446 -0.8993302 -1.6223872 -1.309497
000120 eb ff ee 3d bf 2d 72 bf 3c 6c 4b bf 6c 8c 9a 3f
       0.11669906 -0.94601053 -0.7946203 1.2074103
000130 59 bc f4 be f8 08 13 3e 62 5e 7f bf c3 96 26 c0
       -0.47799948 0.1435889 -0.9975339 -2.6029518
000140 3b 1e c9 3f f7 12 25 bf 32 af d7 bf b5 36 ae 3f
       1.5712351 -0.64482063 -1.685034 1.3610445
000150 d4 13 a6 be 64 05 b2 3f 10 dc 09 41 96 b4 85 3f
       -0.32437003 1.3907895 8.616226 1.0445735
000160 38 0c 3f 3e 47 cf cf 3e 5f 89 5c 3c d2 39 e4 bd
       0.18657005 0.40587828 0.013460486 -0.11143841
000170 c4 ed 82 3f d5 f1 0c 3e 36 99 a6 3f 8f 84 6d 3e
       1.022881 0.13764127 1.3015506 0.23195098
000180 ec e3 67 3f 50 4f de 3b e1 90 c1 bd 11 27 b5 be
       0.90582156 0.006784357 -0.094514616 -0.35381368
000190 e1 ec ce c0 81 e3 3d 3f 4d 55 be be c9 6b 17 3f
       -6.466416 0.7417527 -0.37174454 0.5914884
0001a0 a0 e4 c6 40 b0 c7 16 3f 87 fe 47 c0 ce 3f 93 3f
       6.2154083 0.5889845 -3.12491 1.1503847
0001b0 57 2e 8d 3e 07 79 84 bf 53 98 95 be 23 47 72 3e
       0.27574417 -1.0349435 -0.29217777 0.23659949
0001c0 fb 1f be 3f e2 78 25 40 e3 e7 a5 bf 84 ad 7c bf
       1.485351 2.585503 -1.2961391 -0.98702264
0001d0 ae 24 86 be f7 07 d4 be 78 94 ce c0 32 99 51 3f
       -0.2619986 -0.41412327 -6.4556236 0.8187438
0001e0 5c ab 83 be c9 95 a6 3f 59 b5 a3 40 a5 94 0d 3f
       -0.25716674 1.3014461 5.115887 0.5530494
0001f0 4b 0d 2a c0 d0 69 c8 3f 52 77 a7 be 7d 9a 50 3f
       -2.6570613 1.5657291 -0.32708222 0.8148573
000200 3b 45 f2 be 51 a5 cf 3e 45 a5 b8 3f 83 e0 58 40
       -0.47318444 0.40555814 1.4425436 3.388703
000210 7f b6 51 bf b1 0e 7b bf 1f 09 f8 be 54 59 16 3f
       -0.8191909 -0.9806929 -0.4844446 0.58730054
000220 b2 01 8e 3f c3 2e 83 bf 50 98 29 be 21 b6 b9 3f
       1.1094267 -1.0248646 -0.16562009 1.4508706
000230 c2 2e 2a 3f 8a 78 a6 bf 9a f5 e9 3e 68 b8 07 3f
       0.66477597 -1.3005536 0.45695192 0.53015757
000240 2d 88 ef bd d6 5a 21 3e 37 1b 37 be d9 cf 5c be
       -0.11695895 0.15757307 -0.17881475 -0.21563663
000250 20 a9 96 bf 26 90 a7 c0 42 1c 1f 3f 21 29 3f bf
       -1.1770363 -5.2363462 0.62152493 -0.7467213
000260 3c 4d 87 c0 ed 32 d8 3e 8e ca 15 40 44 27 20 bf
       -4.228178 0.42226353 2.340488 -0.62559915
000270 ad 61 7b bf f6 09 8b 3f e1 78 8e 40 ba a1 40 be
       -0.98195916 1.0862415 4.4522557 -0.18811694
000280 65 2b ec bd 1f 70 90 3d fd fc 8c 3e 96 e0 16 40
       -0.11531714 0.070526354 0.27536765 2.3574576
000290 cf 17 1b bf 57 e7 ea bd 3d b8 1d bf ee 9f 20 c0
       -0.60583204 -0.11469906 -0.6160925 -2.5097613
0002a0 b5 85 34 3f 0a 01 b9 bf d4 15 42 c0 03 93 91 bf
       0.7051652 -1.4453442 -3.0325823 -1.137299
0002b0 40 1f 3d c0 ec be 31 3f 78 8c 31 3c aa 14 47 40
       -2.9550323 0.6943195 0.010836713 3.1106362
0002c0 bb ae a1 c0 1f 3a 4d bf 15 05 16 bf da 33 d6 bf
       -5.0525794 -0.8016681 -0.58601505 -1.6734574

conv2.bias f4 [20]
000000 1b 0a 8e 3e d6 3c ad bd 78 f0 e9 3d a8 ab a9 be
       0.27742085 -0.08458869 0.11422819 -0.33138776
000010 47 d0 3d be 00 f0 d2 3d bc e6 b7 bc 00 6b ce be
       -0.18536483 0.102996826 -0.02244889 -0.4031601
000020 87 81 32 be 84 cd 95 3d 84 d4 48 be d6 5f 40 3d
       -0.17432223 0.073145896 -0.19612318 0.046966396
000030 6d db 28 bd 26 a2 2d 3d 19 78 4d be d6 fe 18 be
       -0.041224886 0.042390965 -0.20065345 -0.14940962
000040 7d 0e 79 be 47 c3 d2 be ed 0a 0d be 8a be ef be
       -0.24321933 -0.4116461 -0.13773699 -0.46825057

conv2.lin.weight f4 [20, 20]
000000 a4 e5 ad 3e 72 45 dd 3e 7b 33 22 c0 df 66 a2 3f
       0.33964264 0.43217045 -2.534392 1.2687644
000010 e1 ba 2f bf cc cf 30 3f 50 e5 02 be 5b 84 b0 bf
       -0.6864453 0.6906707 -0.12782788 -1.3790392
000020 0d d9 ab 3c 0a ac 4f 3f 4b c0 17 3f d3 c8 b0 bf
       0.020977521 0.81121886 0.5927779 -1.3811287
000030 44 1d 75 be 6c e2 36 bf 07 77 1d 3c 13 44 3a bf
       -0.23936945 -0.7143924 0.009610898 -0.72760123
000040 51 f7 13 bf a4 e9 98 bf 3e 9d 90 be 57 16 3c bf
       -0.5779925 -1.1946301 -0.28244966 -0.7347159
000050 01 e7 c5 3d 1f 3e a0 bc 9d 95 17 40 5b 3e 2e 3f
       0.09663201 -0.019560872 2.3685067 0.68063897
000060 71 41 c6 bf 3f 6b e4 3d db 3e 4e bf f9 fd 64 bf
       -1.5488721 0.11153268 -0.8056466 -0.8945003
000070 8b 82 f3 be 03 19 8c 3e 9c 88 de 3e ea a2 18 bf
       -0.47560534 0.27362832 0.434636 -0.5962359
000080 89 ce 0b bf 4c a4 08 bd a1 e0 18 bf 2e 5d 88 3d
       -0.5461202 -0.03335981 -0.59717757 0.066583976
000090 c1 0b 2e bf f3 ab e9 3e 82 7c c4 3f b1 5e 30 bf
       -0.67986685 0.45639 1.5350497 -0.6889449
0000a0 bc 4b 47 be b5 bc 44 3d 1a 3c 28 c0 5b e5 25 3f
       -0.19462484 0.048031528 -2.6286683 0.64803094
0000b0 77 8f 27 3d 50 57 c6 bd f4 ab b6 3f 9a 8b a2 bf
       0.040908303 -0.09684622 1.4271226 -1.2698853
0000c0 61 e7 a7 3e da 09 df 3f 38 38 b2 3f 2b 2c 84 bf
       0.32793716 1.7424881 1.3923407 -1.0325979
0000d0 99 d8 00 3f 98 73 e7 bf eb a9 30 3f 41 f6 ae 3e
       0.503305 -1.8082151 0.69009274 0.34172252
0000e0 08 f2 16 bd dc ec 29 bf 35 ea 2f be 10 bc 04 bf
       -0.036851913 -0.66377044 -0.17179187 -0.5184946
0000f0 dc 62 1b bf 07 fe e3 3d 47 05 d1 3e b0 df ba bd
       -0.6069772 0.11132436 0.4082434 -0.09124696
000100 e3 93 c9 be 86 ce c3 be 3d da 2d 3f f7 72 90 bf
       -0.3937064 -0.38243502 0.6791113 -1.1285084
000110 5f 23 f8 bf cd fc 2a 3f 47 bc 99 3e f1 df 67 3f
       -1.9385794 0.66791993 0.30026457 0.9057608
000120 93 07 95 be 68 cb 68 3f 91 a2 af bd f4 79 eb 3f
       -0.2910734 0.90935373 -0.08575929 1.8396592
000130 c0 0b 06 bf cb d5 ba 3f 39 6f 4d bf 4e 07 84 3e
       -0.5236168 1.4596494 -0.8024784 0.25786823
000140 93 16 10 3f c5 a0 7e 3d aa 9f 7f 3e 02 c7 39 3f
       0.56284446 0.06216504 0.24963251 0.72569287
000150 5b c9 06 bf 87 f8 0e bf c6 5b c4 3f 89 0f 02 c0
       -0.52650994 -0.5584797 1.5340507 -2.0321982
000160 78 a1 6a bf e0 fc 41 3d d3 95 99 3f f2 43 f1 3c
       -0.9165263 0.0473603 1.1998848 0.029451344
000170 8b 81 5f bd bc 71 0d be 69 89 7d be 1e 02 9a 3e
       -0.0545669 -0.13812917 -0.24759449 0.3007974
000180 3e c0 df bd f7 e2 1d 3f 3b eb 89 3e d9 1f 0e bf
       -0.10925339 0.61674446 0.2693728 -0.55517346
000190 59 81 1a c0 82 61 8a bd f7 81 31 bf 16 5e fe bf
       -2.4141448 -0.067568794 -0.69338936 -1.9872463
0001a0 43 bc 06 bf 02 8c 6e be 2c d8 09 3f f2 68 13 40
       -0.52631015 -0.23295596 0.5384548 2.3032804
0001b0 e1 e9 25 3e 1a f7 e2 be 44 cd a4 3e e0 78 a1 3e
       0.16202499 -0.4432915 0.32187855 0.31537533
0001c0 9a 87 db 3b 6c 5b a6 3e 81 27 9b 3d 1f 57 6a bf
       0.0066995146 0.32491624 0.07575894 -0.91539186
0001d0 dd c8 0d 3f 99 c8 76 bf cd 77 24 be d8 ef 32 3e
       0.5538462 -0.9639984 -0.16061325 0.17474306
0001e0 f1 5f 14 c0 05 6b 05 3d c1 e7 e1 be 41 f7 53 bf
       -2.3183558 0.032572765 -0.44122127 -0.82799155
0001f0 2a 56 1c bf 64 e4 3a 3d 6d 12 90 be ee 12 c5 3f
       -0.61068976 0.045627967 -0.28139058 1.5396402
000200 ba b1 21 3f c5 dd 61 3e be b5 d4 3e c5 6a 6f 3f
       0.63161814 0.22057255 0.41544908 0.9352229
000210 5c 55 28 bd 60 03 85 3f 0e 8d 06 3b 3a f5 99 bf
       -0.04109703 1.0391655 0.0020530852 -1.2027962
000220 63 09 eb bf ee a7 13 bf e5 b8 8a bf 74 e1 9d 3d
       -1.836224 -0.57678115 -1.0837675 0.077090174
000230 80 1c 2a bf 5c 24 72 3f 5e a6 19 3f e0 2a 89 bf
       -0.6644974 0.9458673 0.6001948 -1.071621
000240 b4 bf 0f be d9 81 a2 3e 6f 14 35 bc 28 15 da 3e
       -0.14037973 0.3173969 -0.011052235 0.42594266
000250 f0 82 8d 3f 61 ae db bf d9 3d 81 be b1 ae e1 3e
       1.1055584 -1.7162591 -0.252425 0.4407859
000260 ee 03 f8 3e 4a 8d e1 3e cf 2c ad 3e db 2c 0d be
       0.48440498 0.44053108 0.3382325 -0.13786642
000270 92 a3 89 3d 14 e2 fd 3e 75 d2 a4 3e eb 71 8c be
       0.06720652 0.49586546 0.32191816 -0.27430663
000280 54 0a 0e 3f 1d 10 86 3e 11 39 ab 3f ca ce 94 be
       0.5548451 0.26184168 1.337679 -0.29064018
000290 45 e3 c8 3e db 4f a6 3e c7 01 b3 3f bc e9 af 3f
       0.39235893 0.324828 1.3984917 1.3743205
0002a0 52 a4 a9 bf 02 6f f7 3e 64 0a 7a 3f 8a ea 85 bf
       -1.3253272 0.4832688 0.97672105 -1.0462201
0002b0 d7 7f 45 3e ca 34 14 bf ae 8e f6 3e 15 51 33 bf
       0.19287048 -0.5789305 0.4815573 -0.70045596
0002c0 b1 79 77 be f2 ad ad 3f 7f 01 60 be d4 b9 20 3f
       -0.24167515 1.3568709 -0.2187557 0.6278355
0002d0 cb ea ba 3e 37 93 37 be a2 e0 ee 3f b8 34 1a 3f
       0.36507258 -0.17927252 1.8662302 0.6023669
0002e0 06 60 88 be ca e0 cb 3d 19 98 f1 3d 01 43 07 bf
       -0.2663576 0.099549845 0.117965885 -0.52836615
0002f0 42 16 98 3c e4 4f e0 be 35 10 da 3e 41 5d bb bf
       0.0185653 -0.43810952 0.4259049 -1.4637834
000300 1b 10 b3 3e 95 3b cd bf cb b2 ab 3e 81 c2 00 3f
       0.34973225 -1.6033808 0.33534846 0.5029679
000310 52 98 cb bf fa 42 81 bf 90 d5 78 bf c1 dd 89 c0
       -1.590586 -1.0098565 -0.9720087 -4.3083196
000320 38 e2 0b 3f 03 18 98 3d ce f3 db 3f 4e 1b b8 be
       0.5464206 0.07426455 1.7183778 -0.35958332
000330 f8 91 52 3f bb 94 8c bc 1e db 71 bf 2c f3 24 40
       0.8225398 -0.017160764 -0.9447497 2.577342
000340 e4 45 84 3d e7 a5 1e bf d2 2e 80 bf fa 3e 4a bd
       0.06458643 -0.61971897 -1.0014288 -0.049376465
000350 2c e1 1e 3f 1a f8 15 3a 94 d0 dc 3e b4 07 27 be
       0.62062335 0.0005720869 0.43127882 -0.16311532
000360 c6 be f9 3e 89 80 67 3f 15 72 a2 bc 4c 4b d0 3f
       0.4877836 0.90430504 -0.01982979 1.6272979
000370 3a 8c 0b 3f c9 19 9e 3b 5a 11 d8 3d fb 95 2e 3f
       0.54510844 0.004824851 0.105501845 0.681976
000380 e1 36 70 3f 2c 1e e7 3d 62 b9 d9 bf 63 05 4d 3e
       0.9383374 0.11285052 -1.7009699 0.20021586
000390 6b ce d2 3e c3 ec a2 3d b5 51 b9 3e 56 dc ac 3d
       0.4117311 0.07955315 0.3619515 0.08440463
0003a0 36 03 ab 3e 56 b9 9e 3e 70 43 f3 bd 75 31 08 3f
       0.33400887 0.31000775 -0.11878097 0.53200465
0003b0 ef ea 3d c0 e5 74 38 bf 0c 91 39 bf a7 8d 93 bf
       -2.9674642 -0.72053367 -0.7248695 -1.1527604
0003c0 5a 0e 22 3f a3 b2 7d be 49 6e 65 c0 78 78 62 bf
       0.6330315 -0.24775176 -3.5848563 -0.8846507
0003d0 d4 0b 13 3f 16 b5 3b 3d 94 e6 5c 3f f2 26 cf be
       0.57439923 0.045826994 0.86289334 -0.404594
0003e0 10 d8 1a bf 96 5a 5e 3f 6e 09 89 3f 74 df 58 3f
       -0.60485935 0.86856973 1.0706003 0.8471596
0003f0 74 a1 38 bb 44 26 0e 3f 48 47 b8 be d7 04 29 3f
       -0.0028172405 0.5552714 -0.35991883 0.6602301

conv3.bias f4 [20]
000000 d8 ec 71 bd d7 8b 93 3e 55 5e 56 3e c5 ce 04 be
       -0.059063762 0.28817627 0.20934422 -0.12969501
000010 f3 08 8c 3d d2 69 c4 3c 0c 28 15 be 8d de b5 be
       0.068376444 0.02397624 -0.14566058 -0.35521355
000020 4e ba 33 bd b4 0a 1c bd 94 0b 2c 3e 79 09 00 be
       -0.043878846 -0.038096145 0.16801292 -0.12503614
000030 64 eb 4a 3e 6d e2 84 bc ef 48 ba 3e f9 77 63 be
       0.19816357 -0.01622125 0.3638377 -0.22213735
000040 c0 63 a3 bc 96 c2 e1 bd e4 4f 09 be 25 63 19 be
       -0.019945025 -0.110234424 -0.13409382 -0.14979227

conv3.lin.weight f4 [20, 20]
000000 36 2e 08 3c 34 64 95 3e d3 1d 80 bd 0a 23 28 40
       0.008311799 0.2917801 -0.062556885 2.6271386
000010 40 f0 26 3f 79 3f 2e bf de 7d 1a bf 27 62 b9 3f
       0.6521034 -0.680656 -0.6034831 1.4483079
000020 9a 48 00 bf e0 b7 fb 3c 83 cb a3 be 42 35 5a 3e
       -0.5011078 0.030727327 -0.31991205 0.21309379
000030 64 c5 3b be 12 3c e4 3e 20 4d c5 3f 10 39 d7 be
       -0.18337017 0.4457708 1.5414162 -0.42035723
000040 69 c2 8a bf c5 c4 bb be 9f 6c a5 bf e4 74 94 bd
       -1.0840579 -0.3667356 -1.2923774 -0.072488576
000050 db 5c df bd 77 d1 b2 3f 42 94 48 3f 96 a4 8f bf
       -0.10906383 1.3970174 0.78351223 -1.1222103
000060 30 7f b1 bd 35 26 62 bf f7 ce 10 bf f3 50 13 c0
       -0.08666837 -0.8833955 -0.56565803 -2.3018157
000070 48 32 46 bf 00 a9 d3 bd 02 f6 b2 be e4 55 c4 bf
       -0.77420473 -0.103349686 -0.34953314 -1.5338712
000080 fd b2 bd be 84 b1 cb bd 7c 41 cd 3e 08 13 dc 3e
       -0.3705062 -0.09945968 0.40089023 0.4298327
000090 77 5c cf 3f 5a 1c 27 3f 90 e3 d6 bf ed 87 e8 bf
       1.6200093 0.65277636 -1.6788197 -1.8166481
0000a0 33 03 53 3f e1 c3 1e c0 dc 02 23 3f 29 8b 66 3f
       0.82426757 -2.4807055 0.6367624 0.9005609
0000b0 08 a9 cf 3e f6 40 39 be 85 c2 07 bf f7 cb a1 bf
       0.40558648 -0.18091187 -0.5303119 -1.264037
0000c0 b3 e5 10 bf 3d 61 e7 3d 02 19 24 bf fe 90 2e bf
       -0.56600493 0.112978436 -0.6410066 -0.6818999
0000d0 09 e4 7e be ea 0a 9d 3c 99 0c 12 c0 9f a0 c3 bf
       -0.24891676 0.019170243 -2.282019 -1.5283393
0000e0 ad 20 77 3e 2b be 8d bf 5e 28 d5 be 08 8f 27 bf
       0.24133559 -1.107366 -0.4163236 -0.65452623
0000f0 77 47 8d 3f ec e8 63 3f b1 b5 23 3f 36 4f 25 3d
       1.1037434 0.89027286 0.63949114 0.040358745
000100 69 30 23 3e 1c 13 4c 3c ac e3 78 3f b3 84 3b bf
       0.15936436 0.012455728 0.972224 -0.7324936
000110 44 ad 33 3f 81 b4 f3 3d 02 d6 34 3e b8 4f d1 be
       0.7018626 0.11899663 0.17659763 -0.40881133
000120 0e 63 b6 3f dc 81 99 bd 36 6a 79 bf dc d1 25 3d
       1.4248979 -0.07495472 -0.9742769 0.04048334
000130 e5 cf 35 c0 7f 3d c4 3f 10 8f 15 3e 37 60 f1 bd
       -2.8408139 1.5331267 0.14605355 -0.1178593
000140 5f f4 35 3f 4f 1f 0c bf d8 4f ca be 16 cd b4 3f
       0.71076006 -0.54735273 -0.3951404 1.4125087
000150 91 80 fc be ac 5b b6 be 2a 59 ed bf 57 96 2b 3f
       -0.49316838 -0.35616815 -1.8542836 0.67026275
000160 0c 78 7b bf ac 7e 65 3f 11 1a be bf 23 99 ae 3f
       -0.9823005 0.8964641 -1.4851705 1.3640484
000170 74 af 40 be fd d0 ea be 32 a3 a9 3e c8 6c 76 bf
       -0.1881693 -0.4586257 0.3313232 -0.96259737
000180 7c c4 c3 3f b6 7d cf 3e a7 4c 4a 3d 41 7e 31 bf
       1.5294337 0.40525597 0.049389508 -0.69333273
000190 30 ad ef 3d c5 18 fc be 70 39 0b bf 41 17 e9 3e
       0.11702955 -0.49237648 -0.5438452 0.45525554
0001a0 71 80 cd 3e aa 84 99 bf a0 39 5b 3f 1f 43 80 3d
       0.40137056 -1.1993611 0.85634804 0.06262802
0001b0 94 83 b6 bf 4d d7 14 3f cd 14 61 bf c4 19 37 3e
       -1.4258904 0.5814102 -0.87922364 0.17880923
0001c0 34 26 bc 3e 0c 86 45 be 74 c9 f5 bd 27 c9 de bf
       0.36747897 -0.19289416 -0.12001315 -1.7405137
0001d0 80 69 27 3e b5 b5 c3 be d1 05 9d bf eb 41 92 bf
       0.16348839 -0.3822457 -1.22674 -1.1426367
0001e0 ca f0 f8 3e 82 fa 96 3e c3 49 08 bf 8e e7 88 bf
       0.48621207 0.29487997 -0.5323755 -1.0695665
0001f0 30 e5 b2 3f aa 99 b3 3d 4c f9 0d c0 13 bd b7 3f
       1.3976192 0.087695435 -2.2183409 1.4354576
000200 a5 0a da bf 0d 6b 84 3e 25 8e a8 be 36 5a 8f 3f
       -1.7034498 0.25862923 -0.32920948 1.1199405
000210 ca 55 52 3f 00 c5 25 bf c8 0e d6 3f 4c 7c 12 bf
       0.82162154 -0.64753723 1.6723261 -0.5722091
000220 c8 fd 64 bf f4 45 82 3f b6 03 1e 3e f7 39 53 3f
       -0.8944974 1.0177598 0.15431103 0.8251032
000230 77 63 1c 3f 32 60 89 3c 36 d9 8a 3f af d9 29 3f
       0.6108927 0.016769502 1.0847538 0.66347784
000240 f4 80 a3 3f 73 1f c3 3e 2d 02 0f bf 84 0f 33 40
       1.2773728 0.3810993 -0.55862695 2.797822
000250 2c 10 0a 3f 1f 44 38 3f e7 89 c5 bb 06 a4 97 3f
       0.53930926 0.71978945 -0.006028402 1.1846931
000260 87 1e 8f 3d 64 3d 1b 3f 27 88 83 be 4c c0 67 3e
       0.069882445 0.6064055 -0.25689813 0.22631949
000270 5b b5 03 3f df ad 83 bf cc c8 55 bf b0 0e c3 3f
       0.514486 -1.0287436 -0.83509517 1.5238857
000280 c4 a2 13 3f 38 ae 20 bf 9c 7f 12 3d e7 38 b8 3f
       0.57670236 -0.62765837 0.03576623 1.4392365
000290 0b bf 81 3e 46 8b 94 3e fb 90 ca 3d 06 bc 37 bf
       0.25341067 0.29012507 0.09890934 -0.71771276
0002a0 86 38 36 3e cf 77 92 bf ad 42 09 3d a8 ae 51 bf
       0.17795 -1.1442813 0.033510853 -0.8190713
0002b0 8e 18 45 3f c3 24 bb 3e 0f 0b 39 3e aa d0 a9 3e
       0.7699059 0.36551484 0.18070625 0.3316701
0002c0 0d cd 20 3f e6 08 a7 be 28 ef 91 be 9e ab c7 bf
       0.6281288 -0.32623976 -0.28502774 -1.5599248
0002d0 22 52 36 3f b1 2b 3b bd db f6 2a 3e bc b4 c6 3f
       0.71219075 -0.045695964 0.1669573 1.5523906
0002e0 e6 1c 0b 3f fd ff 16 bf 03 6b d0 3e 7f ae 71 3f
       0.5434097 -0.5898436 0.40706643 0.94406885
0002f0 71 70 2f bf 4a fd ef bf e0 9d 6a bb 70 b9 11 bf
       -0.68530947 -1.8749173 -0.0035799667 -0.5692358
000300 14 66 da 3e 6e bb 0d 3f d8 98 8e 3d 01 1f 27 be
       0.42656004 0.5536412 0.069627464 -0.16320421
000310 b1 c6 8d 3f 4f f9 4e bf 83 eb 06 bf d3 f8 57 bf
       1.1076261 -0.80849165 -0.5270311 -0.8436405
000320 24 15 06 bf 3c da 0f bf 7a 73 31 bf 1a 0b e9 be
       -0.5237601 -0.56192374 -0.6931683 -0.45516282
000330 4a ec db 3e ee e9 d8 bd c1 9a b1 3f b3 67 57 3e
       0.42953712 -0.105914935 1.3875352 0.21035652
000340 58 b3 3e be 2d b0 5b c0 df ce c0 3f a6 d4 5d 3e
       -0.18623102 -3.432628 1.5063132 0.2166315
000350 88 d6 17 3e 21 f8 db 3e 82 00 b9 3f 63 a0 4b 3f
       0.14827931 0.42962745 1.445328 0.79541606
000360 26 b2 28 3f a8 b7 90 3d db 1b e8 bf f3 ab 0f be
       0.6589683 0.0706628 -1.8133501 -0.14030437
000370 f6 d2 eb be a0 d6 a4 bc 9f 71 cd 3f 63 92 12 40
       -0.46059388 -0.020121872 1.60503 2.2901847
000380 38 d9 13 40 78 b3 c9 3e 9c a6 50 3e c0 13 ba 3e
       2.310133 0.39394736 0.20376056 0.36343193
000390 ff 04 a2 3f 2e 03 ca be da ba 51 be 56 f7 df be
       1.2657775 -0.3945555 -0.20481434 -0.4374339
0003a0 9e f4 11 40 32 ac 26 3f 63 f1 a8 bf 2b 42 9b 3f
       2.2805552 0.651065 -1.3198665 1.2129568
0003b0 77 03 69 bf 1f 19 03 3e bd f2 99 3f a0 2a f2 bf
       -0.9102091 0.12802552 1.2027203 -1.8919258
0003c0 f7 51 64 3e 5b bb 38 bf fe f1 93 bf 93 8e 91 3f
       0.22296892 -0.7216088 -1.1558225 1.1371635
0003d0 cf d0 2b 3f 5e 5b 50 3f 9c 6c 52 bf ec b7 2a 40
       0.6711549 0.81389415 -0.82196975 2.6674757
0003e0 fa 7e 7c bf 0d c1 db 3e 80 fc 1f bf 50 9d 40 3f
       -0.9863125 0.42920724 -0.6249466 0.7524004
0003f0 64 90 af be f6 ca bd bf 30 b3 96 3e c0 98 8e bf
       -0.3428985 -1.4827564 0.29433584 -1.1140366

lin.weight f4 [2, 60]
000000 7b 3a 25 40 0e 5c 0b c0 53 cd 12 40 26 4d 17 40
       2.5816944 -2.1774936 2.293782 2.3640838
000010 ee 02 20 c0 93 bc 2a c0 0f ea 52 40 31 68 2a c0
       -2.5001788 -2.6677597 3.2955358 -2.6626093
000020 3f 33 fb bf 5c 80 17 c0 43 fd 1d c0 0a 66 3f c0
       -1.9625014 -2.3672094 -2.4685829 -2.990603
000030 1f 53 53 c0 e5 d5 a5 bf 20 cb 83 40 8f af cd bf
       -3.3019483 -1.29559 4.1185455 -1.6069201
000040 7d 18 38 c0 d0 f6 bf bf 1f f7 0f c0 0c c8 67 c0
       -2.8764946 -1.4997196 -2.249458 -3.621585
000050 08 95 ab c0 12 02 36 bf 69 18 57 be ff 5e b8 3f
       -5.3619423 -0.7109691 -0.21005405 1.440399
000060 b5 1c ac 3d cf 90 9e bf 10 54 0c c0 7a e1 c1 be
       0.08403913 -1.2387942 -2.1926308 -0.37867337
000070 62 a9 a0 bd 9f c5 83 3f 14 01 42 3f 0a 46 63 3e
       -0.07844807 1.0294684 0.75782895 0.22194687
000080 97 93 4b be 9e fa 8b 3e a7 6b 54 bf 08 c6 91 3f
       -0.1988052 0.27339643 -0.82976764 1.1388559
000090 74 04 14 bf 39 d8 85 3d 7a 41 af bf 07 c9 be be
       -0.57819295 0.06535382 -1.3691857 -0.37262747
0000a0 77 01 00 40 9c dc ab 3e cc 03 df 3e 4b 18 9a 3b
       2.0000894 0.3356675 0.43557584 0.004702603
0000b0 e2 8b c9 3e 4c 14 39 bf 50 1f f2 bd 35 a1 44 3e
       0.39364535 -0.72296596 -0.11822379 0.1920212
0000c0 73 f1 ff 3d 7f 9d 04 3f a6 e9 e7 3d e2 ca 65 3e
       0.12497225 0.5180282 0.11323862 0.22440675
0000d0 f5 54 a7 3e e3 5d 94 3e 6f 77 20 bd 9e 6e c8 3e
       0.32682005 0.2897788 -0.0391764 0.39146894
0000e0 2e 41 ce be b6 28 61 be a5 cf 43 3e 57 c9 1c 3e
       -0.40284103 -0.21988186 0.19122179 0.1531118
0000f0 b1 56 2f c0 cc 45 18 40 82 f9 0d c0 9a 8a 20 c0
       -2.7396662 2.37926 -2.2183537 -2.5084596
000100 74 58 1e 40 9f 9b 1e 40 7b 34 60 c0 48 9b 33 40
       2.4741488 2.4782484 -3.5032032 2.8063526
000110 9a de f9 3f 09 85 1a 40 40 5c 1a 40 24 36 3e 40
       1.9521058 2.4143698 2.4118805 2.9720545
000120 0b cf 48 40 df 87 a0 3f 50 de 79 c0 4a 6d dc 3f
       3.137637 1.2541465 -3.9041939 1.7220852
000130 ec c8 3a 40 28 ef cf 3f e6 1e 14 40 0b 2a 68 40
       2.9185133 1.624486 2.314386 3.627566
000140 83 5e b1 40 3e bd 2a 3f 79 a1 f9 3d 4f f9 b9 bf
       5.542787 0.6669501 0.121890016 -1.4529208
000150 77 c8 60 bd 7f f7 88 3f 47 97 fa 3f 4d 29 6d 3e
       -0.05487868 1.070053 1.9577416 0.23160286
000160 52 49 33 bd c3 c1 6b bf 33 50 4c bf 22 68 66 be
       -0.043771096 -0.9209253 -0.79809874 -0.22500661
000170 dc 81 75 3e 6d 75 4d be bb 2d 75 3f 44 4d 6f bf
       0.23975319 -0.20064326 0.95772904 -0.93477273
000180 7e 67 dd 3e 21 23 1c be 1e 13 ae 3f 89 d0 dd 3e
       0.4324302 -0.15247776 1.3599584 0.43323162
000190 14 d8 e6 bf 07 7e 8e be 19 cc bf be 37 30 9e bd
       -1.8034692 -0.27830526 -0.37460402 -0.0772404
0001a0 0e bc 4a be 28 b9 31 3f 4d c7 8f 3c ba 4a e1 bd
       -0.197983 0.6942315 0.017551089 -0.11000581
0001b0 ad b4 2d be e8 04 d3 be b1 65 9d be 78 67 e7 bd
       -0.16963454 -0.4121468 -0.30741647 -0.11299032
0001c0 a0 2e a5 be 0d 1d 5f be ab a4 85 3e db 47 b6 be
       -0.32262135 -0.21788426 0.26102194 -0.35601696
0001d0 cc 07 8f 3e 86 ff c4 3e d6 d9 cc bd ce a9 26 be
       0.27935636 0.384762 -0.100024864 -0.16275713

lin.bias f4 [2]
000000 00 02 a3 be fe 9c e9 3d
       -0.31837463 0.11406897
